air_poll_classifier_sgd2to32_pytorch.pth (torch, 30838 bytes, 13 tensors)

features.0.weight f4 [2, 3, 3, 3]
0	0xbe5bcb96	-0.2146438
1	0xbe8596c1	-0.2609158
2	0xbe59b171	-0.21259095
3	0xbc76f0c0	-0.015072048
4	0x3d7e9e92	0.062162943
5	0xbe7eddff	-0.24889372
6	0xbd963024	-0.07333401
7	0xbe51937d	-0.20466419
8	0x3d5c5e02	0.05380059
9	0xbd88c5e5	-0.066783704
10	0x3dafce6b	0.08584293
11	0x3c6f8013	0.014617938
12	0x3d143105	0.03617956
13	0x3d5ea5bb	0.05435727
14	0xbdc88574	-0.09791079
15	0x3e0728e9	0.131992
16	0xbd5d0d68	-0.053967863
17	0x3de1525a	0.110020354
18	0x3de4fde3	0.111812375
19	0x3e4f552c	0.20247334
20	0x3e0845cf	0.1330788
21	0xbc1dd084	-0.0096322335
22	0x3e8fdee9	0.28099754
23	0x3e12655a	0.14296475
24	0xbd5d281b	-0.053993326
25	0xbde65f1d	-0.1124861
26	0x3e83df5b	0.25756344
27	0x3b756336	0.0037443168
28	0x3e4fd94a	0.20297733
29	0x3e0f2252	0.13977936
30	0x3e8466aa	0.25859576
31	0x3e800c78	0.25009513
32	0x3e3c39cf	0.18381427
33	0x3caeec21	0.02135283
34	0xbca463e2	-0.02006716
35	0x3e846ea3	0.2586566
36	0xbd21712f	-0.03941458
37	0x3dd9057d	0.1059675
38	0xbda4754a	-0.080301836
39	0x3cf281dc	0.029602937
40	0x3e177166	0.14789352
41	0xbdf9276c	-0.12165722
42	0x3d98beb6	0.0745825
43	0xbe112d72	-0.14177492
44	0xbc30ba21	-0.010786564
45	0xbd1be6dc	-0.03806196
46	0x3c7abc60	0.015303701
47	0xbe362e4c	-0.17791098
48	0xbd4fdc77	-0.05074736
49	0xbd4285fd	-0.047491062
50	0xbda6d6c6	-0.081464335
51	0x3d39c935	0.0453579
52	0xbdc353f9	-0.09537501
53	0xbd9acd20	-0.07558656

features.0.bias f4 [2]
0	0x3d835817	0.06413286
1	0x3cbccaae	0.023045864

features.3.weight f4 [4, 2, 3, 3]
0	0x3e1b33cd	0.15156479
1	0x3e1f01b0	0.15527987
2	0xbdbe2c70	-0.092858195
3	0x3dc7e444	0.09760335
4	0xbd89244e	-0.06696378
5	0x3d364454	0.044498757
6	0xbdd64c04	-0.104637176
7	0x3df6635a	0.120306686
8	0x3cae6c23	0.021291798
9	0xbe000538	-0.12501991
10	0xbe94a7dd	-0.2903432
11	0xbe6f70cc	-0.23382872
12	0xbc541462	-0.012944313
13	0xbdb8ae5d	-0.09017632
14	0x3d23ee8a	0.04002241
15	0xbe23f9c8	-0.16013253
16	0x3e054d6b	0.13017814
17	0xbe0b2f8d	-0.13592358
18	0xbd183bc4	-0.037166372
19	0xbd1f4b4a	-0.03889016
20	0x3e61e415	0.22059663
21	0x3eaf943f	0.3429279
22	0x3dc2890a	0.094987944
23	0x3e9380a0	0.2880907
24	0x3de65587	0.11246782
25	0x3e62e8ac	0.2215907
26	0xbd0fb8d3	-0.03508837
27	0x3d8442eb	0.06458076
28	0xbe432c8f	-0.19059967
29	0xbd135a05	-0.03597452
30	0xbde8966b	-0.11356815
31	0xbe622faf	-0.22088502
32	0x3e0e35a8	0.13887656
33	0x3d033fb8	0.03204319
34	0xbe414ead	-0.18877669
35	0xbe2a504a	-0.1663219
36	0x3da50f8e	0.080596074
37	0x3dedf4d5	0.11618964
38	0xbe0a2aa5	-0.1349283
39	0xbda14d8e	-0.078761205
40	0xbe1bd4dd	-0.1521792
41	0xbcedf137	-0.029045684
42	0xbc043dce	-0.008071376
43	0x3d1ed5fb	0.038778286
44	0x3e827517	0.25479957
45	0xbccd1871	-0.025036069
46	0xbd3bc40f	-0.045841273
47	0xbdef1cd3	-0.1167542
48	0x3e85b53c	0.26114833
49	0x3e7606cb	0.24026029
50	0xbdd53900	-0.104112625
51	0x3ea26ac0	0.3172207
52	0x3dacae67	0.08431702
53	0x3e7e595a	0.24838772
54	0x3e9ff1b3	0.3123909
55	0x3ddd2081	0.10797215
56	0xbd513f40	-0.05108571
57	0xbc3bbb28	-0.011458196
58	0xbd0a2dea	-0.033735193
59	0x3e8455c4	0.25846684
60	0x3e99127f	0.29896924
61	0x3e10cbe0	0.14140272
62	0x3e8d6234	0.27613986
63	0x3e6c6d1b	0.23088495
64	0xbbb4570c	-0.005503541
65	0x3d8ef023	0.06979396
66	0xbda1f913	-0.07908835
67	0xbdac6eb0	-0.084195495
68	0x3d87971b	0.06620618
69	0xbe7be0c1	-0.24597456
70	0xbe5bd4f8	-0.2146796
71	0x3d7fd57f	0.062459465

features.3.bias f4 [4]
0	0x3e250d53	0.16118364
1	0x3e51e1fd	0.20496364
2	0xbe3b68b1	-0.18301655
3	0xbe4d285c	-0.20034927

features.6.weight f4 [8, 4, 3, 3]
0	0x3e4ec1bb	0.2019109
1	0xbcd03558	-0.025416061
2	0x3e033e6e	0.12816784
3	0x3d9730e8	0.07382375
4	0xbd37ac7d	-0.044842232
5	0xbd5d0288	-0.053957492
6	0xbc48efab	-0.012264173
7	0xbd430516	-0.047612272
8	0x3e176051	0.14782836
9	0x3e60ebd9	0.21964969
10	0xbd51e0c4	-0.051239744
11	0x3daae1d8	0.083438575
12	0x3dd6fdab	0.10497602
13	0x3e5b4ddb	0.21416418
14	0xbd0f0d42	-0.034924753
15	0xbddd1a13	-0.10795989
16	0x3e306881	0.17227365
17	0x3d9b48cf	0.075822465
18	0x3e1e52ca	0.15461269
19	0x3c8ef57e	0.017451044
20	0x3e2b497e	0.16727254
21	0xbd814406	-0.063118026
22	0xbd5ec266	-0.05438461
23	0xbe2136a0	-0.15743494
24	0xbca435b8	-0.020045146
25	0xbe0387c4	-0.12844759
26	0x3da15df6	0.0787925
27	0x3e2efe56	0.17089209
28	0x3ec86da2	0.39146143
29	0x3ec5409c	0.38525856
30	0x3ed0e10b	0.40796694
31	0x3e87a054	0.26489508
32	0x3e92ac01	0.28646854
33	0x3ec73061	0.38904098
34	0x3e83afdd	0.2572011
35	0x3e96b135	0.29432073
36	0x3e681b71	0.22666718
37	0x3d35a828	0.04434982
38	0xbd0ad02e	-0.033889942
39	0x3e23a69f	0.1598153
40	0xbd9b6904	-0.075883895
41	0x3dd74554	0.1051127
42	0xbca9758b	-0.020685932
43	0x3dfcba46	0.12340216
44	0xbdee7ef6	-0.116453096
45	0x3e6fcc6c	0.23417825
46	0x3e2d13b0	0.16902041
47	0x3db04571	0.08606995
48	0xbd7d0f37	-0.061782088
49	0x3e2ffc73	0.17186145
50	0x3e288851	0.1645825
51	0x3df5c247	0.11999946
52	0xbd0baee3	-0.03410233
53	0xbc437515	-0.01192977
54	0x3dd7d59b	0.10538789
55	0x3befaef4	0.007314557
56	0xbdcb2e04	-0.09920886
57	0xbdcf6578	-0.101267755
58	0xbe161d9a	-0.1465973
59	0xbe52ac56	-0.20573553
60	0x3c388831	0.011262939
61	0xbd441f94	-0.047881678
62	0xbcbb24d3	-0.022844708
63	0x3e1cc770	0.15310454
64	0x3e1b550d	0.15169163
65	0x3eb92f68	0.3616898
66	0x3e63ea37	0.22257315
67	0x3e64c7c0	0.22341824
68	0x3e60a8aa	0.2193934
69	0x3ea13473	0.31485328
70	0x3e565df2	0.20934275
71	0x3e9ae1e4	0.30250466
72	0x3e21f191	0.15814807
73	0x3e3415e3	0.17586474
74	0xbc999964	-0.0187499
75	0x3e9a54cd	0.30142823
76	0x3da7dbd8	0.08196229
77	0x3e924bdd	0.28573504
78	0xbe2fa6fa	-0.1715354
79	0xbcec9e12	-0.028883968
80	0xbcc46a00	-0.023976326
81	0x3ea426e9	0.32060936
82	0x3dbb410e	0.091432676
83	0x3ce4bf41	0.027923228
84	0x3e889ed1	0.26683667
85	0x3e78f099	0.2431053
86	0xbd23688a	-0.039894618
87	0xbe16071d	-0.14651151
88	0xbecd5cf7	-0.4010999
89	0xbedabc31	-0.42721704
90	0xbe115d8b	-0.1419584
91	0xbd24beab	-0.040220898
92	0xbe150d25	-0.14555795
93	0xbe096e27	-0.13420926
94	0xbdd69ad3	-0.10478749
95	0x3e421f79	0.18957318
96	0x3e02ae79	0.12761869
97	0x3dee15f0	0.11625278
98	0x3d98fb24	0.07469776
99	0x3f03a2a8	0.5142007
100	0x3e52f2be	0.20600411
101	0x3e220252	0.15821198
102	0x3e7769e1	0.24161483
103	0x3d94e2bd	0.072698094
104	0x3e42b077	0.19012628
105	0xbe37c993	-0.17947988
106	0xbe887413	-0.26651058
107	0xbe833187	-0.25623724
108	0xbd800746	-0.06251387
109	0xbd8c59ca	-0.068530634
110	0x3ba11c29	0.004916687
111	0x3dc22f93	0.0948173
112	0x3e093329	0.13398422
113	0xbd126020	-0.035736203
114	0x3ce0ec23	0.027456349
115	0x3d4a355c	0.049367294
116	0xbddae0e8	-0.10687429
117	0x3e2ce89b	0.16885607
118	0x3e24d364	0.16096264
119	0x3e083080	0.13299751
120	0xbbde0c8c	-0.006776398
121	0xbdf94fd1	-0.12173427
122	0xbe534719	-0.2063259
123	0x3d866589	0.06562335
124	0xbe252982	-0.16129115
125	0xbdfce732	-0.123487845
126	0x3e472866	0.19449005
127	0x3dc23670	0.094830394
128	0x3e74f5df	0.23921917
129	0x3e949297	0.2901809
130	0x3e803f26	0.25048178
131	0x3e818da7	0.25303385
132	0xbcf89e3e	-0.030348893
133	0x3c9b8711	0.018985303
134	0x3e454057	0.19262825
135	0xbe6f2185	-0.2335263
136	0xbe792dd3	-0.24333887
137	0xbdb8dd08	-0.09026533
138	0xbd86751b	-0.06565305
139	0x3d4ca22f	0.049959358
140	0xbe033aec	-0.12815446
141	0xbe8a53cd	-0.2701706
142	0xbe93f115	-0.28894868
143	0xbee19c4f	-0.44064566
144	0x3e6ca16e	0.23108456
145	0x3ea13788	0.3148768
146	0x3e974214	0.295426
147	0x3d1a4e60	0.0376724
148	0x3de68da0	0.112574816
149	0xbd5dbe1d	-0.054136384
150	0xbd0cb963	-0.034356486
151	0xbe06836f	-0.13136075
152	0xbd641935	-0.0556881
153	0x3e0fba09	0.1403581
154	0x3e8989e5	0.26863018
155	0x3e8d81fe	0.2763824
156	0xbdeb5693	-0.11491122
157	0xbcd18543	-0.02557624
158	0xbdae5262	-0.08511807
159	0xbd756bbc	-0.059917197
160	0xbd73413d	-0.059388388
161	0x3dce102c	0.10061678
162	0xbf01f3ae	-0.5076245
163	0xbedc542b	-0.43032965
164	0xbee24ebb	-0.44200692
165	0xbe3413b3	-0.1758564
166	0xbe96a506	-0.29422778
167	0xbe031aae	-0.12803146
168	0xbe8f3cf5	-0.27976194
169	0xbeae0071	-0.33984712
170	0xbe74bd62	-0.23900369
171	0xbe219806	-0.15780649
172	0xbc9e2376	-0.019304018
173	0x3b97dba9	0.00463434
174	0xbe2769d4	-0.16348964
175	0xbd817480	-0.06321049
176	0x3d0123ff	0.03152847
177	0x3dfae4cb	0.1225067
178	0xbdeb8fc7	-0.11502033
179	0x3d115ab2	0.035486884
180	0xbe803630	-0.25041342
181	0xbe5c250e	-0.2149851
182	0x3d80d456	0.062905
183	0xbe27de94	-0.163935
184	0xbe0e2603	-0.13881688
185	0xbdad1b18	-0.08452433
186	0xbdb620f7	-0.08893006
187	0xbded574c	-0.11588916
188	0xbe34a2bc	-0.17640203
189	0xbdd9c799	-0.10633773
190	0x3ab063e3	0.0013457503
191	0x3d2cb0dd	0.042160857
192	0xbce55e79	-0.02799915
193	0x3d991bb6	0.074759886
194	0x3de782cc	0.113042444
195	0x3dd74f99	0.10513229
196	0x3d5bf785	0.05370285
197	0x3e2ea5e1	0.17055465
198	0x3d2d1437	0.042255607
199	0x3d6fad5a	0.05851493
200	0x3dfc7c41	0.12328387
201	0x3d85e895	0.06538502
202	0x3d258f55	0.040419895
203	0x3b20c736	0.0024532801
204	0x3bb92a71	0.0056508114
205	0xbe1c0fe9	-0.15240444
206	0xbd93293e	-0.07185601
207	0x3eed0878	0.46295524
208	0x3eaac8e9	0.33356407
209	0x3e1e9004	0.15484625
210	0x3eb439c6	0.35200328
211	0x3eb95e86	0.36204928
212	0x3e8dde13	0.27708492
213	0x3eba6d9b	0.36411747
214	0x3e49a725	0.19692667
215	0x3e370cae	0.1787593
216	0xbe04e5b7	-0.12978254
217	0x3e11fa43	0.14255624
218	0xbe1a1828	-0.15048277
219	0xbc38f7ec	-0.011289578
220	0x3d30b769	0.043143664
221	0xbd59233b	-0.053012114
222	0x3d7b4d80	0.061353207
223	0xbe03021f	-0.12793778
224	0xbd06a436	-0.032871448
225	0xbd91cfde	-0.07119726
226	0xbd6a2413	-0.05716331
227	0xbde6fbaf	-0.112784736
228	0xbdd3f573	-0.1034955
229	0xbd953a40	-0.07286501
230	0xbd7af735	-0.06127091
231	0x3c8814f6	0.016611557
232	0x3c1565eb	0.009118537
233	0xbd89cc10	-0.06728375
234	0x3dd655b2	0.10465564
235	0xbd94c409	-0.07263953
236	0x3d95b8ed	0.073106624
237	0xbddaea74	-0.1068925
238	0xbe1e9a80	-0.15488625
239	0xbe0ecfda	-0.13946477
240	0x3cf13b52	0.029447231
241	0x3ae86d18	0.0017732708
242	0xbcf68a3f	-0.030095218
243	0xbd980f64	-0.074248105
244	0x3e0c584b	0.13705556
245	0x3e17dd2b	0.14830463
246	0xbd8b3631	-0.067974456
247	0xbc280394	-0.010254759
248	0x3de0a86f	0.10969626
249	0x3d9f91c6	0.07791476
250	0xbdbef1b3	-0.09323444
251	0xbd89fe0b	-0.06737908
252	0x3e855e5c	0.26048553
253	0x3dd9ff36	0.10644381
254	0x3ccd3d50	0.02505365
255	0xbdd485ef	-0.10377108

features.6.bias f4 [8]
0	0xbd637e63	-0.055540454
1	0xbd85fbb0	-0.06542146
2	0xbde6f5a6	-0.112773225
3	0x3b32c40e	0.0027277502
4	0x3dcd059e	0.10010837
5	0xbc5cf0de	-0.013485162
6	0xbe1c8289	-0.1528417
7	0x3e125ecf	0.14293979

features.9.weight f4 [16, 8, 3, 3]
0	0x3e52fe18	0.20604742
1	0x3e014e57	0.1262754
2	0x3c385e65	0.011252974
3	0x3da4a7e3	0.08039834
4	0x3d426671	0.047460977
5	0xbdbbe9d2	-0.09175457
6	0xbd4415e2	-0.04787243
7	0x3bd76482	0.0065732608
8	0x3b46384b	0.0030245956
9	0x3e654cca	0.22392574
10	0x3e40333b	0.18769543
11	0x3e1eb8a8	0.15500128
12	0xbd70e9ff	-0.058816906
13	0xbaa7f394	-0.0012813681
14	0xbc5c6388	-0.0134514645
15	0x3db12a49	0.086506434
16	0x3d16f926	0.0368587
17	0xbe08e0c6	-0.13366994
18	0x3f25258e	0.6451043
19	0x3f512625	0.8169883
20	0x3f4451e8	0.7668748
21	0x3e48b206	0.1959916
22	0x3e85d492	0.2613874
23	0x3e88ff67	0.26757357
24	0xbd9bc79a	-0.0760643
25	0xbd8e702f	-0.06954991
26	0xbd87d1cb	-0.06631812
27	0x3e81fea1	0.2538958
28	0x3e36ba64	0.1784454
29	0x3e90b963	0.2826644
30	0x3e3a41d0	0.18189168
31	0x3e4df3ff	0.20112608
32	0x3e6cbf96	0.23119959
33	0x3dcd6fa3	0.10031059
34	0x3dea919f	0.11453556
35	0x3e2b7421	0.16743518
36	0xbd6ab8bf	-0.057305094
37	0xbe120b94	-0.14262229
38	0xbc86c5c4	-0.016451724
39	0x3e52e4ef	0.20595144
40	0x3dfd0171	0.123537906
41	0x3db56ce4	0.0885866
42	0x3dde8485	0.1086512
43	0xbe007848	-0.12545884
44	0x3ac3d550	0.0014940891
45	0xbdccb9cd	-0.09996376
46	0x3d90468c	0.07044706
47	0xbc75e6b1	-0.015008614
48	0x3d14808b	0.0362554
49	0x3c6cc462	0.014451118
50	0xbcace743	-0.021106368
51	0xbd4faed1	-0.050703827
52	0xbd2fbd77	-0.042905297
53	0xbd75ab8e	-0.05997806
54	0x3d903daf	0.07043015
55	0x3d2ad646	0.041708253
56	0xbc2893f7	-0.010289184
57	0xbdabf796	-0.08396833
58	0xbd9d3d16	-0.07677667
59	0xbc9488d1	-0.018131645
60	0xbdb21b4e	-0.08696614
61	0xbe018799	-0.12649383
62	0xbd3fdee8	-0.04684344
63	0xbe45c882	-0.19314769
64	0xbdb53b76	-0.08849232
65	0xbe76ec56	-0.24113593
66	0xbde850c9	-0.113435335
67	0xbe038382	-0.12843135
68	0xbdb0b36d	-0.08627973
69	0xbdac8a69	-0.08424837
70	0xbb9fe6e1	-0.004879818
71	0xbdefcad8	-0.11708611
72	0x3e23c00c	0.15991229
73	0x3e4e4d7e	0.20146748
74	0x3e2bb733	0.16769104
75	0x3c8c0d76	0.017096262
76	0x3dd684cd	0.104745485
77	0x3b3210a6	0.0027170568
78	0xbded054a	-0.115732744
79	0xbc9f516a	-0.019448001
80	0xbd9efe6a	-0.077633694
81	0x3e91ceb8	0.28478026
82	0x3e8bc03e	0.27295107
83	0x3e3f051c	0.18654293
84	0xbd205278	-0.03914115
85	0x3dbb0676	0.09132092
86	0x3de63ee8	0.11242467
87	0xbd942a8b	-0.07234677
88	0x3b9c789d	0.0047751204
89	0xbe11af0f	-0.14226936
90	0xbe8f77ae	-0.28020996
91	0xbe26b41d	-0.16279645
92	0xbeb890ca	-0.36047965
93	0xbe6fbdb3	-0.23412208
94	0xbde8b28b	-0.11362179
95	0xbea87eff	-0.3290939
96	0xbdc03801	-0.09385682
97	0xbe238a4b	-0.15970723
98	0xbd7f6722	-0.062354214
99	0xbeaee573	-0.3415943
100	0xbe79fe26	-0.24413356
101	0xbeb118b9	-0.34589174
102	0xbe994e63	-0.29942617
103	0xbe828c6c	-0.25497758
104	0xbe8f1b92	-0.27950722
105	0xbd01d2c5	-0.031695146
106	0xbd03177b	-0.032004815
107	0x3ccfa299	0.025346087
108	0x3eb103da	0.3457325
109	0x3e8af72b	0.271417
110	0x3eb93a69	0.36177376
111	0x3e0f0ec1	0.13970472
112	0x3e5c3d41	0.21507742
113	0x3c6d451b	0.014481808
114	0xbcd5d669	-0.026103215
115	0x3d1531dd	0.036424506
116	0xbdd5dead	-0.10442863
117	0xbd166f0b	-0.036726993
118	0xbd0e42c0	-0.034731627
119	0xbbc97766	-0.0061482666
120	0xbe147ee9	-0.14501537
121	0xbd23c483	-0.03998233
122	0xbe20feba	-0.1572217
123	0xbe7750d0	-0.24151921
124	0xbd606c55	-0.054790813
125	0xbd210f5d	-0.039321292
126	0x3d912d57	0.07088726
127	0x3a15e637	0.00057182036
128	0xbd145e4d	-0.036222745
129	0xbd7633be	-0.06010794
130	0xbdcbc169	-0.099489994
131	0xbdd1fd30	-0.1025337
132	0x3dbb7110	0.09152424
133	0x3d3a75e4	0.045522586
134	0xbda1102f	-0.07864415
135	0x3e4d7e29	0.20067658
136	0x3d1bf189	0.038072143
137	0x3dab41cd	0.0836216
138	0x3d05cf87	0.032668617
139	0x3c8b58a0	0.017010033
140	0x3de920b7	0.11383193
141	0xbaa4366c	-0.0012528426
142	0xbdfbe276	-0.12299053
143	0x3d1a8650	0.037725747
144	0xbba778b0	-0.0051108226
145	0x3d31d0d8	0.04341206
146	0x3d1bc017	0.038024988
147	0x3a4e2fee	0.00078654184
148	0xbc839c68	-0.016065791
149	0xbd38a9a3	-0.045083653
150	0xbd1e61d0	-0.0386675
151	0xbb9ff28a	-0.004881208
152	0x3d0906cb	0.033453744
153	0x3d2ae82d	0.041725326
154	0xbdc7f8f2	-0.097642794
155	0xbdd70296	-0.1049854
156	0x3c03af6a	0.008037427
157	0x3d7d3989	0.061822448
158	0xbd89e4d0	-0.06733096
159	0x3cd708ac	0.026249252
160	0xbe04b3e3	-0.12959246
161	0x3c61d49e	0.013783602
162	0x3d3c389a	0.045952417
163	0xbd0e4798	-0.034736246
164	0xbdb3ab94	-0.0877296
165	0x3c976fc4	0.018485911
166	0xbca04241	-0.019562842
167	0xbd86c927	-0.065813355
168	0xbde7ec31	-0.11324347
169	0x3ca50f56	0.020148914
170	0x3d6db3ec	0.058032915
171	0xbd801263	-0.06253507
172	0x3d1afe6f	0.037840303
173	0xbdf3c002	-0.11901857
174	0xbda5a713	-0.080885075
175	0xbd87d5b7	-0.0663256
176	0x3d9abd67	0.07555657
177	0xbdedeaed	-0.11617074
178	0x3d9af00d	0.07565317
179	0x3d95fda1	0.073237665
180	0x3de9fb2b	0.114248596
181	0xbd896195	-0.067080654
182	0xbd7d82cb	-0.061892312
183	0x3d075bfb	0.033046704
184	0xbdf1566f	-0.11784064
185	0xbb80149e	-0.0039087078
186	0xbe0a05d4	-0.13478786
187	0x3d6b8bb1	0.057506267
188	0xbdc1fe35	-0.09472314
189	0xbdaea543	-0.08527615
190	0x3db982ab	0.09058126
191	0xbd88540b	-0.06656655
192	0xbd80aef2	-0.06283368
193	0xbd5e284b	-0.054237645
194	0x3d55d6d0	0.052206814
195	0xbdfbe9d9	-0.12300462
196	0xbd6e9ca6	-0.05825486
197	0xbd906aa9	-0.07051594
198	0xbd9c69cd	-0.076373674
199	0xbca5154c	-0.020151757
200	0x3cb27ed5	0.021788994
201	0xbde7b4b1	-0.11313761
202	0x3bd3dcbe	0.0064655235
203	0x3cf57823	0.029964512
204	0xbc77caab	-0.015124003
205	0xbcc9e6e2	-0.024646226
206	0x3d9d10fe	0.07669257
207	0xbd031b8f	-0.032008704
208	0x3d4f70c7	0.050644662
209	0x3d9e21a4	0.0772126
210	0xbda50adc	-0.08058712
211	0xbcadf241	-0.02123368
212	0xbd547ef9	-0.051878903
213	0xba313a91	-0.0006760741
214	0x3d1f0529	0.03882328
215	0x3c3b7b0f	0.011442914
216	0x3e5fa18a	0.21838966
217	0x3e5dfd45	0.21678646
218	0x3e44d0a9	0.19220223
219	0x3db4fe5f	0.0883758
220	0x3dc37a1d	0.09544776
221	0x3e49a991	0.1969359
222	0xbdc2ce20	-0.095119715
223	0xbc7002c4	-0.014649097
224	0x3d7a055c	0.061040267
225	0x3e10a301	0.14124681
226	0x3dd82fdc	0.105560035
227	0x3df933e0	0.121680975
228	0xbca474e8	-0.020075276
229	0x3e1dd307	0.15412532
230	0x3cae327d	0.021264309
231	0xbc8faecb	-0.017539402
232	0x3d20b6f0	0.039236963
233	0xbb27da60	-0.002561234
234	0xbe3b6de5	-0.1830364
235	0xbe2b5690	-0.1673224
236	0xbe22e9df	-0.15909527
237	0x3d040a23	0.03223623
238	0xbd82cc9d	-0.06386683
239	0x3de08fb2	0.10964908
240	0x3ce079cb	0.027401825
241	0x3e60533d	0.21906753
242	0x3dae12d9	0.08499689
243	0xbc473e0c	-0.012160789
244	0xbd3e241f	-0.046421167
245	0xbdecfba9	-0.11571438
246	0xbe3bfd1e	-0.18358275
247	0xbb26a807	-0.0025429742
248	0xbe112475	-0.14174064
249	0x3dd644aa	0.104623154
250	0x3c0a6fb5	0.008449485
251	0x3dea16c1	0.11430121
252	0x3e691b73	0.22764377
253	0x3e2f591b	0.17123835
254	0x3e2a6de3	0.16643481
255	0x3e3c5a8d	0.18393917

features.9.bias f4 [16]
0	0xbdcbe592	-0.099558964
1	0x3d59113b	0.052994948
2	0xbe2ee31d	-0.17078824
3	0xbde0c77e	-0.1097555
4	0x3dfe65f2	0.12421788
5	0x3de5a3f7	0.112129144
6	0xbc13722f	-0.008999391
7	0x3e2fece5	0.17180212
8	0xbe8b8502	-0.27249914
9	0x3d66cd27	0.056347992
10	0x3de0cb1b	0.10976239
11	0xbd0608cf	-0.032723244
12	0x3ddf4879	0.10902495
13	0x3dd2d5cb	0.10294684
14	0x3dc65823	0.096847795
15	0x3c8ba096	0.017044347

features.12.weight f4 [16, 16, 3, 3]
0	0xbdc6dc50	-0.0970999
1	0xbdb941f8	-0.09045786
2	0xbda89123	-0.08230808
3	0xbcef38cb	-0.029201886
4	0x3da306ad	0.07960258
5	0xbca6e520	-0.020372927
6	0x3d72f754	0.0593179
7	0x3d4fd84a	0.05074338
8	0x3d9ec9f8	0.07753366
9	0xbc74b8c3	-0.014936629
10	0x3d513c51	0.051082913
11	0x3d9bfaf7	0.07616227
12	0xbdc1389d	-0.09434626
13	0xbc227597	-0.009915731
14	0x3c5d8648	0.013520785
15	0xbcaaaa75	-0.020833233
16	0xbdcecf55	-0.10098139
17	0x3ba866f2	0.005139225
18	0x3b840e24	0.004030006
19	0x3d8d3b9c	0.06896135
20	0xbcf12019	-0.02943425
21	0x3b534306	0.0032235994
22	0xbd3b423e	-0.04571747
23	0xbcae48ad	-0.021274889
24	0xbbe0c4fa	-0.006859419
25	0x3bfecccf	0.00777588
26	0xbdaaa34c	-0.08331928
27	0x3e069754	0.13143665
28	0x3d441d1a	0.047879316
29	0x3e0364d3	0.1283143
30	0xbb6177f6	-0.0034403778
31	0xbcad4633	-0.021151638
32	0xbbe0cf64	-0.0068606604
33	0xbd8ef3bb	-0.06980082
34	0xbce39c31	-0.027784439
35	0xbd88d2a9	-0.06680805
36	0x3db1b05b	0.08676215
37	0xbc62ea5c	-0.013849821
38	0x3d3c64b9	0.045994494
39	0x3c8b27fb	0.016986838
40	0x3cd0348d	0.025415683
41	0xbd67ee05	-0.056623477
42	0xbd711bc3	-0.058864366
43	0xbd593d64	-0.053037062
44	0xbda127f9	-0.07868952
45	0x3e4712c7	0.19440757
46	0x3de5b7ef	0.11216723
47	0x3db7d640	0.08976412
48	0xbd5205bd	-0.051275004
49	0xbd8188fd	-0.063249566
50	0xbc992353	-0.018693602
51	0xbe018498	-0.12648237
52	0xbe5f5d1c	-0.21812862
53	0xbe2ca07a	-0.16858092
54	0xbd0d2b90	-0.034465373
55	0xbd41a24c	-0.04727392
56	0x3d1ea939	0.038735602
57	0xbe0644e4	-0.13112217
58	0x38d90ff5	0.000103503386
59	0xbdc8469e	-0.09779094
60	0xbda0cd06	-0.07851605
61	0xbdfd1389	-0.12357242
62	0xbd96c140	-0.07361078
63	0xbc1553ea	-0.009114245
64	0x3df621c9	0.12018163
65	0x3c3fa90d	0.01169802
66	0x3d6b7842	0.057487734
67	0xbbd80c13	-0.0065932362
68	0xbdb55a67	-0.088551335
69	0xbe0c26e9	-0.13686718
70	0xbd59c094	-0.053162172
71	0xbe0492c8	-0.12946618
72	0x3e755c54	0.23961002
73	0x3e87674c	0.26445997
74	0x3eba7b88	0.36422372
75	0x3e73ee5f	0.238214
76	0x3ea68ca3	0.32529172
77	0x3ec2d259	0.38051108
78	0x3ee6c74f	0.45073935
79	0x3e9f41dc	0.31104934
80	0x3ee65940	0.44989967
81	0x3ceead51	0.029135378
82	0x3dc10620	0.094249964
83	0x3bc4f228	0.0060103126
84	0xbda8e0e5	-0.0824602
85	0xbd849919	-0.064745136
86	0xbde789ad	-0.113055564
87	0xbde49d41	-0.11162806
88	0xbe30afe7	-0.17254601
89	0xbd979cbf	-0.07402944
90	0xbc96fa41	-0.018429877
91	0x3d3a60c0	0.045502424
92	0xbccc32e9	-0.02492662
93	0xbd859614	-0.06522766
94	0xbd7a737f	-0.061145302
95	0xbcb41192	-0.021981034
96	0xbdf99e77	-0.12188428
97	0xbe084d5b	-0.13310759
98	0x3cc15373	0.023599362
99	0x3e017d96	0.12645563
100	0xbcd11fe2	-0.025527898
101	0x3cd1cd0e	0.025610473
102	0xbda277b1	-0.079329856
103	0xbd8c0ade	-0.0683801
104	0x3d1e817a	0.038697697
105	0xbd91b1c0	-0.07113981
106	0xbd3be670	-0.04587406
107	0xbd91e433	-0.07123604
108	0x3da926d6	0.082593605
109	0xbc4137e9	-0.011793115
110	0x3e0fd5a7	0.14046346
111	0xbc318243	-0.0108342795
112	0x3bd3a9c1	0.006459445
113	0x3bc29bf6	0.005939002
114	0xbd8b19ea	-0.06792052
115	0xbe2e5c09	-0.17027296
116	0xbdfca012	-0.123352185
117	0x3c85f414	0.016351737
118	0x3c18a12f	0.009315773
119	0x3de7e23f	0.1132245
120	0xbdc19bd0	-0.09453547
121	0xbd3f2ca1	-0.04667342
122	0xbd20eef1	-0.039290372
123	0xbdbe6bff	-0.09297942
124	0xbd2212ae	-0.039568596
125	0xbd76d59c	-0.060262308
126	0x3dc676ff	0.096906655
127	0x3d2f35ca	0.042775907
128	0x3e347f60	0.17626715
129	0xbd3ea6ba	-0.04654572
130	0xbd203f27	-0.039122727
131	0xbd8225ee	-0.06354891
132	0xbd5d8c9f	-0.054089185
133	0xbe075f05	-0.13219841
134	0xbd89e8dc	-0.067338675
135	0x3e81b4fb	0.2533339
136	0x3e2eda3a	0.17075434
137	0x3e2022ca	0.15638271
138	0xbc880de3	-0.016608184
139	0x3d6ee58f	0.058324393
140	0xbd39fb3c	-0.04540561
141	0xbe3869ea	-0.18009153
142	0xbe4e7ea5	-0.20165499
143	0xbe573b20	-0.21018648
144	0xbd20f685	-0.0392976
145	0xbd976f6b	-0.07394298
146	0xbdaa19aa	-0.08305676
147	0x3c160daa	0.009158531
148	0x3e0a9c74	0.13536245
149	0x3da83199	0.08212585
150	0x3d3df5ad	0.046376873
151	0x3e3a9c00	0.18223572
152	0x3da57070	0.080780864
153	0x3dfebd0c	0.124384016
154	0x3dd383af	0.10327851
155	0x3e5cdaac	0.21567792
156	0xbd819b27	-0.06328421
157	0x3bb759f7	0.0055954414
158	0x3d0651e0	0.032792926
159	0xbd986f30	-0.07443082
160	0xbd94c9c2	-0.07265045
161	0xba63c5e6	-0.0008688852
162	0x3cdc5af7	0.026898844
163	0xbc57b3f0	-0.013165459
164	0xbd922154	-0.07135263
165	0x3da80961	0.08204914
166	0xb9844ccf	-0.0002523423
167	0x3ce9d779	0.028545128
168	0xbd79e8c6	-0.061013006
169	0x3d873adb	0.06603023
170	0xbbea8700	-0.0071572065
171	0x3e5dcf9f	0.21661232
172	0x3e5155df	0.20442913
173	0x3e726baf	0.2367389
174	0x3ddfc20f	0.109256856
175	0x3d83dd31	0.06438673
176	0x3d1c472c	0.038153812
177	0xbc6419dc	-0.013922181
178	0xbca176b7	-0.019709928
179	0xbc9ce344	-0.019151337
180	0x3e023906	0.12717065
181	0x3e621b24	0.22080666
182	0x3e475f46	0.19469938
183	0x3c10588a	0.008810172
184	0xbc835796	-0.016032975
185	0xbce324ad	-0.02772745
186	0xbdaa67b2	-0.083205596
187	0xbcad2ba1	-0.021138968
188	0xbd632e25	-0.05546393
189	0x3e55e135	0.20886691
190	0x3e34452a	0.17604509
191	0x3dcb5b6b	0.09929546
192	0x3d695d03	0.05697347
193	0x3d82105a	0.06350775
194	0x3d23afa5	0.03996243
195	0xbdfe9f40	-0.12432718
196	0xbe278ea6	-0.1636301
197	0xbdc62454	-0.09674898
198	0x3e2a3a55	0.16623814
199	0x3ddfdd0d	0.10930834
200	0x3e1a235a	0.15052548
201	0xbd8beaad	-0.0683187
202	0xbc632a05	-0.013864999
203	0x3ce1ebf5	0.027578333
204	0xbe022e99	-0.12713088
205	0xbe1af533	-0.15132599
206	0xbdbe8f6d	-0.093047
207	0x3e4a05c0	0.19728756
208	0x3e35ce02	0.17754367
209	0x3e1ea29f	0.15491723
210	0x3d1189dd	0.035531867
211	0x3d3db180	0.046311855
212	0x3cce0a27	0.025151325
213	0xbde06843	-0.10957386
214	0xbdb69de0	-0.08916831
215	0xbe154891	-0.14578463
216	0x3e42d66a	0.19027105
217	0x3e5396ba	0.20662966
218	0x3eaafac4	0.33394444
219	0x3e8b5ac5	0.2721769
220	0x3ec0ad5c	0.37632263
221	0x3ecef2f7	0.40419742
222	0x3f0269b3	0.50942534
223	0x3eaee33a	0.34157735
224	0x3ead8a15	0.3389441
225	0x3e070da9	0.13188805
226	0x3df5d640	0.120037556
227	0x3e5c67b5	0.21523936
228	0x3d94dac7	0.07268291
229	0x3c10d8c1	0.008840741
230	0x3da54d0b	0.080713354
231	0xbc807f2a	-0.015685637
232	0xbcbe98d4	-0.023266234
233	0xbdd323e8	-0.10309583
234	0x3dca767b	0.098858796
235	0x3d935dc5	0.071956195
236	0x3e3ade65	0.182489
237	0x3cbb1a80	0.022839785
238	0x3d2b64b7	0.041844096
239	0x3d8e24d2	0.06940617
240	0xbe23078e	-0.1592085
241	0xbe3cb7ae	-0.18429443
242	0xbdf0f702	-0.11765863
243	0x3e2151c7	0.15753852
244	0x3e05cdd6	0.13066801
245	0x3e6d1a42	0.23154548
246	0x3d83f6eb	0.0644358
247	0x3d0d1c52	0.034450836
248	0x3c9ad776	0.018901568
249	0x3d4230b6	0.047409736
250	0xbc728b2a	-0.014803687
251	0x3c97b229	0.01851757
252	0x3dc968aa	0.09834416
253	0x3de6c557	0.11268108
254	0x3e0bac1c	0.13639873
255	0x3d94d028	0.07266265

features.12.bias f4 [16]
0	0x3bb4bfcc	0.005516028
1	0xbd930047	-0.07177787
2	0x3e13e4e9	0.14442791
3	0x3e87f180	0.26551437
4	0xbd836ff4	-0.06417838
5	0xbd9b8699	-0.07594032
6	0xbd9c8b9e	-0.07643817
7	0xbd922105	-0.07135204
8	0xbdb906ae	-0.09034477
9	0x3e7f106e	0.24908611
10	0xbda221e3	-0.0791662
11	0xbdfffdc9	-0.124995776
12	0xbdaf1155	-0.08548228
13	0xbde6d631	-0.112713225
14	0x3e212369	0.15736164
15	0x3d91a575	0.071116365

classifier.1.weight f4 [128, 16]
0	0xbd7134fb	-0.058888417
1	0xbd78c972	-0.06073899
2	0x3e219a9a	0.15781632
3	0x3e04c2fe	0.12965009
4	0xbd5d427e	-0.05401849
5	0x3e3a26bd	0.1817884
6	0xbe41f2d7	-0.18940292
7	0xbe015e41	-0.12633611
8	0xbe35d1a4	-0.17755753
9	0x3eb71fe2	0.35766512
10	0xbe56b8c7	-0.20968924
11	0x3d6f25a5	0.05838551
12	0x3de3a7ee	0.111160144
13	0x3a54dd54	0.00081201387
14	0x3ea2f160	0.3182478
15	0xbe5f1df2	-0.21788767
16	0x3d1ca8d1	0.038246933
17	0xbdbdb45d	-0.09262917
18	0x3db68812	0.08912672
19	0xbea36488	-0.31912637
20	0xbe209d72	-0.1568506
21	0xbc3e1e7d	-0.011603949
22	0x3d134450	0.03595382
23	0xbe2f6b95	-0.17130883
24	0x3e6a5518	0.22884023
25	0x3cf89d2d	0.030348385
26	0xbe1b5945	-0.15170772
27	0xbcb34867	-0.02188511
28	0xbdd632cb	-0.10458907
29	0x3e0071a2	0.12543347
30	0x3c94fa83	0.01818586
31	0x3e3e28d5	0.18570264
32	0x3d3c364c	0.04595022
33	0xbe6e9e7d	-0.23302646
34	0xbdadfed8	-0.08495873
35	0x3cd8ba13	0.026455915
36	0xbe3a3c26	-0.18187007
37	0x3cf6e7d5	0.030139843
38	0xbbc7fda5	-0.006103235
39	0x3d90b35e	0.070654616
40	0x3e04f5a5	0.12984331
41	0xbdf33a3b	-0.11876341
42	0xbe4e819d	-0.20166631
43	0xbe77e8ee	-0.2420995
44	0xbe27110c	-0.16315097
45	0x3d256658	0.040380806
46	0x3e47c46c	0.19508523
47	0xbd105ae0	-0.035242915
48	0x3d945cd3	0.07244267
49	0xbe882b64	-0.26595604
50	0x3e393a47	0.18088637
51	0x3ea035a0	0.31290913
52	0xbd56db8a	-0.052455463
53	0xbe38e7bc	-0.1805715
54	0x3da79ed3	0.0818459
55	0xbe5f8643	-0.2182856
56	0xbc9d9f05	-0.019240865
57	0x3e6e7d4b	0.23289983
58	0x3d8d8d06	0.06911664
59	0x3bfbcd79	0.0076844064
60	0xbe04beea	-0.12963453
61	0x3adabbb5	0.0016688021
62	0x3e7572f4	0.23969632
63	0xbc01b890	-0.007917538
64	0x3e3bb7ce	0.18331835
65	0x3df6d3c0	0.12052107
66	0x3e1303aa	0.14356866
67	0xbd5a4b9f	-0.053294774
68	0x3d287785	0.041129608
69	0x3e1a2ca3	0.1505609
70	0xbe1c67e8	-0.15274012
71	0xbe1d23ac	-0.15345639
72	0x3e8c08a2	0.27350336
73	0xbe0b82c5	-0.13624103
74	0x3de99e63	0.11407163
75	0x3e4a336e	0.19746181
76	0x3e2dacc1	0.16960432
77	0x3db02e0c	0.08602533
78	0x3ca829df	0.020527778
79	0x3d80d7ff	0.06291198
80	0x3e4b1bce	0.19834825
81	0xbe4219c4	-0.18955141
82	0x3e339786	0.1753827
83	0xbcbc72c9	-0.023003953
84	0x3e2aecd3	0.16691904
85	0x3dba41fb	0.09094616
86	0x3e593e5b	0.21215193
87	0x3d177276	0.036974393
88	0x3e39ea2b	0.18155734
89	0xbe453445	-0.1925822
90	0xbdee2194	-0.11627498
91	0xbb8f9a7b	-0.004382429
92	0xbe321c58	-0.17393625
93	0xbc350c9b	-0.011050369
94	0xbe2696b8	-0.16268432
95	0x3ebb9ae0	0.36641598
96	0xbe721137	-0.2363938
97	0xbe5c5798	-0.2151779
98	0xbd8502df	-0.06494688
99	0xbce3cf92	-0.027808938
100	0x3e357366	0.17719802
101	0x3e7e0acd	0.24808808
102	0xbc21aec6	-0.009868329
103	0x3d91da73	0.07121744
104	0xbe41a2ce	-0.18909761
105	0xbc937d55	-0.018004099
106	0xbdf50de7	-0.11965542
107	0xbe372653	-0.17885713
108	0x3ca24bb7	0.019811494
109	0xbde4aa61	-0.1116531
110	0xbe431ebf	-0.19054697
111	0xbbd3cfeb	-0.0064639947
112	0x3e96aa57	0.29426834
113	0x3e953cfe	0.29148096
114	0x3d9e01e3	0.077152036
115	0x3d326178	0.043549985
116	0x3dc4e1aa	0.096133545
117	0x3dc95cf4	0.098321825
118	0x3de5fb91	0.11229623
119	0x3e2e3eae	0.17016098
120	0x3d75814c	0.05993776
121	0xbe8251f0	-0.25453138
122	0x3c9a321a	0.018822718
123	0xbe70835c	-0.2348761
124	0x3e57489b	0.2102379
125	0x3baa9203	0.0052053942
126	0xbe251a86	-0.16123399
127	0x3e67cb3b	0.2263612
128	0x3e835fcf	0.25659034
129	0x3e471e4c	0.19445151
130	0xbdf536ae	-0.1197332
131	0x3d1388ad	0.036019016
132	0x3d7554da	0.059895374
133	0x3e96eb99	0.29476622
134	0xbe182bbc	-0.14860433
135	0x3e516c9c	0.20451587
136	0x3e1800e7	0.14844094
137	0x3cabc39b	0.020967295
138	0xbdccdf4d	-0.10003529
139	0x3d9618e4	0.07328966
140	0x3c6b81f3	0.014374244
141	0xbd884f98	-0.06655806
142	0x3da4df5d	0.08050416
143	0x3db0cb13	0.08632483
144	0xbe2433ae	-0.16035339
145	0x3d25b21c	0.04045306
146	0x3e3e2d82	0.18572047
147	0xbdc9dc89	-0.09856517
148	0xbe1cef1a	-0.15325585
149	0x3ded9ffd	0.11602781
150	0xbe5de94b	-0.21671025
151	0x3daaf678	0.083477914
152	0x3d92b9f0	0.07164371
153	0xbbbc1949	-0.005740319
154	0xbe64b589	-0.22334875
155	0x3e72e474	0.2371996
156	0xbc726441	-0.01479441
157	0xbde88574	-0.11353579
158	0xbd229195	-0.03968962
159	0xbded259a	-0.115794376
160	0x3e869cf8	0.26291633
161	0x3e97d679	0.29655817
162	0xbe470d0a	-0.19438568
163	0xbe7cd49d	-0.2469048
164	0x3da031cb	0.07821997
165	0x3d0455a1	0.032308225
166	0x3e8f38c4	0.27972996
167	0x3e772c9e	0.24138114
168	0x3de0eb47	0.109823756
169	0xbe624d19	-0.22099723
170	0x3e25cdf9	0.16191854
171	0x3e3c6985	0.18399628
172	0xbe0dc468	-0.13844454
173	0x3d42dbfe	0.047573082
174	0xbe661688	-0.22469532
175	0x3eb1ff8f	0.34765288
176	0x3c2114f2	0.009831654
177	0x3e6b4992	0.22977284
178	0x3dfbb4a8	0.12290317
179	0xbd1c9d86	-0.038236164
180	0xbd94361b	-0.07236882
181	0xbe1a9e49	-0.15099443
182	0x3da87296	0.082249805
183	0xbe70b2cc	-0.23505706
184	0x3de17106	0.11007886
185	0xbbbaa6ed	-0.0056961686
186	0xbe810b0c	-0.2520374
187	0x3e4f5a42	0.20249274
188	0xbe63b689	-0.222376
189	0xbe70a6dd	-0.23501153
190	0xbe376410	-0.17909265
191	0x3d0a41b3	0.033754062
192	0x3e4b35f9	0.19844808
193	0xbe2502a1	-0.16114284
194	0x3e91e42e	0.284944
195	0x3e293b33	0.16526489
196	0x3db9f672	0.09080209
197	0xbe68a2b4	-0.22718316
198	0xbe3693e6	-0.17829856
199	0xbd64ff0b	-0.05590729
200	0xbe5898cf	-0.21152042
201	0x3efb0fb5	0.4903542
202	0x3ddf5968	0.10905725
203	0xbdf25c7a	-0.11834045
204	0xbe689a4a	-0.22715107
205	0x3e02369f	0.12716149
206	0x3e91b1f5	0.28456083
207	0xbd878fb6	-0.066192076
208	0xbe2be83c	-0.16787809
209	0x3e3f03e5	0.1865383
210	0xbd83466c	-0.06409916
211	0x3e0939dd	0.1340098
212	0xbd69ecfd	-0.057110775
213	0x3e8b959e	0.27262586
214	0x3d94b885	0.07261757
215	0xbd2ca14f	-0.042146023
216	0x3e221a45	0.15830334
217	0x3aec1a57	0.0018013221
218	0x3de005a3	0.10938575
219	0xbdaa6230	-0.08319509
220	0xbe40d471	-0.1883104
221	0xbe49dd74	-0.19713384
222	0xbe695ff9	-0.22790517
223	0x3e894ec3	0.26817903
224	0xbe43fd77	-0.19139658
225	0x3e30e0e4	0.17273289
226	0xbe08d1b2	-0.13361242
227	0x3dee1819	0.1162569
228	0xbe0a81b7	-0.13526045
229	0x3e80ca4c	0.2515434
230	0xbe095f58	-0.13415277
231	0x3dd4edda	0.10396929
232	0x3e68da50	0.2273953
233	0xbedba6d1	-0.42900708
234	0x3e7212c0	0.23639965
235	0xbe70f53e	-0.23531052
236	0x3e2bdbb1	0.16783024
237	0x3e4e4b57	0.20145927
238	0xbe946029	-0.28979614
239	0x3e576279	0.21033658
240	0x3d6b43aa	0.057437576
241	0x3c90bafd	0.017667288
242	0xbe6b5fa6	-0.22985706
243	0xbe5bd491	-0.21467806
244	0x3e17490a	0.14773956
245	0x3e89023b	0.26759514
246	0xbdba9625	-0.09110669
247	0xbe191ac3	-0.14951615
248	0x3e9aeabe	0.3025722
249	0xbe0f6b17	-0.14005695
250	0x3e8fafa4	0.2806369
251	0x3df6d240	0.12051821
252	0x3e144617	0.14479862
253	0xbdac69cd	-0.084186174
254	0x3e2ca148	0.16858399
255	0x3d9af8e1	0.07567001

classifier.1.bias f4 [128]
0	0x3ea11297	0.31459495
1	0x3d1d0e3c	0.038343653
2	0xbd4c7769	-0.049918566
3	0x3d456426	0.048191212
4	0xbe550396	-0.20802149
5	0xbe052661	-0.13002922
6	0x3d24ade3	0.040204894
7	0xbe850124	-0.25977433
8	0xbe865cdf	-0.2624273
9	0xbd03b9f3	-0.032159757
10	0xba9335d6	-0.0011231254
11	0xbd5023d6	-0.050815426
12	0x3e91fe8d	0.2851452
13	0xbe9812ce	-0.29701847
14	0xbdd5bcc4	-0.10436395
15	0xbce041ff	-0.02737522
16	0xbe64c220	-0.22339678
17	0x3c9cf818	0.01916127
18	0xbe302c9b	-0.17204516
19	0xbe2c4730	-0.16824031
20	0xbdb51a58	-0.08842915
21	0xbe6fb9f4	-0.23410779
22	0x3e8933f6	0.26797456
23	0x3e4e0494	0.20118934
24	0x3ce08756	0.027408283
25	0xbe577248	-0.21039689
26	0xbc329779	-0.010900372
27	0x3e8b7a11	0.27241567
28	0xbd16a76c	-0.03678076
29	0x3e469486	0.19392595
30	0x3ed744f2	0.4204479
31	0xbd4c29d9	-0.049844597
32	0x3c17c959	0.009264314
33	0xbe6481d8	-0.22315156
34	0x3dd91646	0.105999514
35	0x3d010748	0.031501085
36	0xbb35cf26	-0.0027741878
37	0x3d568c27	0.052379753
38	0x3ed0ac3e	0.4075641
39	0xbe401146	-0.1875659
40	0xbe5605b2	-0.2090061
41	0x3e71df6b	0.23620383
42	0x3ec7d0e2	0.39026552
43	0x3e34462d	0.17604895
44	0xbe8b570f	-0.27214858
45	0x3d33dbbb	0.043910723
46	0x3bbd8cbb	0.0057845986
47	0x3a0c1ac1	0.0005344563
48	0xbdad7bc3	-0.08470871
49	0xbd1b70e6	-0.037949465
50	0x3e9aa804	0.3020631
51	0x3d8c6af2	0.06856336
52	0x3e8f8f30	0.2803893
53	0x3e2a4136	0.16626438
54	0xbd866b14	-0.06563392
55	0x3e057cbe	0.13035867
56	0xbe862f60	-0.2620802
57	0x3e43cf76	0.19122109
58	0x3e9b04b9	0.3027704
59	0xbd8a087b	-0.06739899
60	0xbe637301	-0.2221184
61	0xbe118273	-0.14209919
62	0xbdbe5197	-0.09292906
63	0xbe74d726	-0.23910198
64	0x3c5841d8	0.013199292
65	0x3df5ea30	0.12007558
66	0x3d4dc45f	0.050236102
67	0x3e677ee6	0.22607002
68	0x3e9a331d	0.3011712
69	0xbd8dd4aa	-0.06925328
70	0xbe585443	-0.21125893
71	0x3ec26d0a	0.37973815
72	0xbe25a496	-0.16176066
73	0x3e28870d	0.16457768
74	0xbe5ea840	-0.2174387
75	0xbe53b3d4	-0.20674068
76	0x3d667124	0.056260243
77	0x3e43c847	0.19119368
78	0x3e0d8217	0.13819157
79	0xbe1cb23e	-0.15302369
80	0xbd88dc8d	-0.06682692
81	0xbc90f513	-0.017694985
82	0xbb0b4e77	-0.0021256485
83	0xbd924355	-0.07141749
84	0x3ed0347a	0.40665036
85	0x3e6fa329	0.23402084
86	0xbe2bceac	-0.16778058
87	0xbe2328fa	-0.159336
88	0x3d5139bd	0.051080454
89	0x3e3761df	0.17908429
90	0x3e777b0e	0.24168035
91	0xbe55a22c	-0.20862645
92	0x3e851056	0.25989026
93	0xbe4a5a62	-0.19761041
94	0x3e55285f	0.20816182
95	0x3e6ad9df	0.22934674
96	0xbe39c8ba	-0.18142977
97	0x3e47a806	0.1949769
98	0xbe56c2ef	-0.20972799
99	0x3c99add8	0.018759653
100	0x3d8e6631	0.06953085
101	0x3e3fcb3d	0.18729873
102	0xbe3ab27a	-0.18232146
103	0x3c7e4eb3	0.015521693
104	0x3d30d2e3	0.043169867
105	0xbc4cfa85	-0.0125109
106	0x3eb100e3	0.3457099
107	0xbd83c862	-0.06434704
108	0xbe6893d5	-0.22712643
109	0x3e70ec09	0.2352754
110	0xbdf9b72e	-0.12193142
111	0xbddaeb7f	-0.106894486
112	0x3dcdce0c	0.10049066
113	0x3e90d70b	0.28289065
114	0xbdf38042	-0.118896976
115	0x3e9ca269	0.3059266
116	0x3c42e0c0	0.011894405
117	0x3dc419c7	0.09575229
118	0xbe9c2e86	-0.30504245
119	0x3e3c349b	0.18379442
120	0xbe2cd626	-0.16878566
121	0xbe729a70	-0.23691726
122	0x3ea5373e	0.3226871
123	0x3e6bbce4	0.23021275
124	0x3ca1b71c	0.019740634
125	0xbe70902a	-0.23492494
126	0x3e8a1b46	0.26973933
127	0xbc6359a7	-0.013876355

classifier.3.weight f4 [1, 128]
0	0x3e792719	0.24331321
1	0xbd2a8db2	-0.041639037
2	0xbd42dca9	-0.04757372
3	0x3e7415cf	0.23836444
4	0xbdc8c6a5	-0.098035134
5	0xbd2dc571	-0.042424623
6	0xbc55f57d	-0.013059017
7	0xbe90805b	-0.28222927
8	0xbdcd4d5f	-0.10024523
9	0xbcbcc1ca	-0.023041625
10	0xbe26bcfd	-0.16283031
11	0xbc39108d	-0.01129545
12	0x3edcc2cc	0.43117368
13	0xbda41b73	-0.08013048
14	0xbde4f401	-0.111793526
15	0xbe05d6e1	-0.13070251
16	0xbe20527d	-0.15656467
17	0xbe6b4a34	-0.22977525
18	0xbe256382	-0.1615124
19	0x3b228355	0.0024797518
20	0xbcddea9d	-0.027089411
21	0xbe105763	-0.14095835
22	0x3e27f76a	0.16402975
23	0x3e8f4da8	0.27988935
24	0xbd9ff4ff	-0.07810401
25	0xbe347b6f	-0.17625211
26	0xbd7f4902	-0.062325485
27	0x3e81f935	0.25385442
28	0xbe045856	-0.12924322
29	0x3c99d8d2	0.018780146
30	0x3e9ea991	0.30988744
31	0x3e3c4d34	0.18388826
32	0xbdf5de3f	-0.12005281
33	0xbe54a910	-0.20767617
34	0x3b43d66f	0.002988245
35	0xbbc3d3e6	-0.005976188
36	0x3e13db0c	0.14439029
37	0x3e56e825	0.20986994
38	0x3e88e54d	0.26737443
39	0x3daf9f57	0.085753135
40	0xbdd7c7f1	-0.10536183
41	0xbd441833	-0.04787464
42	0x3e80d53c	0.25162685
43	0xbdcfde32	-0.10149802
44	0xbe49383e	-0.19650361
45	0xbd649a7b	-0.055811387
46	0xbe72dd29	-0.23717178
47	0xbdd9daa8	-0.106374085
48	0xbda59625	-0.080852784
49	0xbc849e7b	-0.01618885
50	0x3e447fe3	0.1918941
51	0xbdee601c	-0.11639425
52	0x3e869a19	0.26289442
53	0x3ce84635	0.02835379
54	0xbcac3d6f	-0.021025388
55	0xbe31c9cb	-0.17362134
56	0xbe8ce23f	-0.27516362
57	0xbcc3be55	-0.023894468
58	0x3e1f721e	0.15570876
59	0xbddc7230	-0.10763967
60	0xbde4392c	-0.11143717
61	0xbe186be1	-0.14884903
62	0xbe05b7a3	-0.13058333
63	0xbc1c2d7f	-0.0095323315
64	0xb9d78725	-0.00041108686
65	0xbd88ebc7	-0.06685596
66	0xbd8cd89a	-0.06877251
67	0x3c345c28	0.0110083
68	0x3e9189d9	0.28425482
69	0x3d8fca82	0.07021047
70	0xbddc3277	-0.10751813
71	0x3e90147d	0.2814063
72	0xbc2769cf	-0.010218098
73	0xbdbd9e0f	-0.09258663
74	0xbdd51d6e	-0.10406004
75	0xbc0cd77f	-0.0085963
76	0xbd463aab	-0.048395794
77	0x3e4690a0	0.19391108
78	0xbe40d020	-0.18829393
79	0xbd750f85	-0.059829254
80	0x3c5f3a96	0.013624808
81	0xbcbc5fa6	-0.022994827
82	0x3e824bd3	0.25448474
83	0xbdf5a3b1	-0.11994112
84	0x3e73fac1	0.23826124
85	0x3e3faf06	0.1871911
86	0xbe168e3e	-0.14702699
87	0x3d66f881	0.056389336
88	0xbda171f5	-0.07883064
89	0x3c41c55f	0.011826842
90	0x3e777c4e	0.24168512
91	0xbd0fc83e	-0.035103075
92	0x3e8ef326	0.27919883
93	0xbc118474	-0.008881677
94	0xbc326a8c	-0.010889661
95	0x3e997ad2	0.29976517
96	0xbd871a51	-0.06596816
97	0x3e06c168	0.13159716
98	0xbd1983b5	-0.03747912
99	0xbcddb2dc	-0.027062826
100	0xbc74cff5	-0.014942159
101	0x3d45af51	0.048262898
102	0xbda82939	-0.082109876
103	0xbd648c44	-0.05579783
104	0x3e4960ad	0.19665785
105	0x3e7847ce	0.24246141
106	0x3e8e518d	0.27796593
107	0xbcfb80c8	-0.030701056
108	0x3c3e9ce4	0.011634085
109	0x3e8c5225	0.2740642
110	0xbd63e9ed	-0.05564301
111	0xbe1a7d1f	-0.15086792
112	0xbd91321c	-0.07089636
113	0x3e8bb036	0.27282876
114	0xbd9a53c5	-0.07535509
115	0x3e951d2f	0.29123828
116	0x3cad7efd	0.021178717
117	0xbc32f529	-0.010922709
118	0xbe952fa0	-0.29137897
119	0x3e546d9f	0.20744942
120	0xbd9f124d	-0.077671625
121	0xbd94f11f	-0.07272553
122	0x3ea06713	0.3132864
123	0x3e529302	0.20563892
124	0xbb6ccab5	-0.0036131565
125	0xbd778dc2	-0.060437925
126	0x3ea2dd7d	0.31809607
127	0xbe00a7ca	-0.12564006
